…
numdepth  	192                           	<class 'int'>       
interval_scale	1.06                          	<class 'float'>     
loadckpt  	None                          	<class 'NoneType'>  
logdir    	./logdir/_checkpoints         	<class 'str'>       
save_dir  	./checkpoints                 	<class 'str'>       
########################################################################
Training Phase in UNetConvLSTM: 128, 128, gn: True
layer:0, scale:1
layer:1, scale:2
layer:2, scale:4
layer:3, scale:2
layer:4, scale:1
Number of model parameters: 199282
Model define:
UMT_MVSNet_V1(
  (feature): FeatNet(
    (conv0_0): Sequential(
      (0): Conv2d(3, 16, kernel_size=(3, 3), stride=(1, 1), padding=(1, 1))
      (1): GroupNorm(2, 16, eps=1e-05, affine=True)
      (2): ReLU(inplace=True)
    )
    (conv0_1): Sequential(
      (0): Conv2d(16, 32, kernel_size=(3, 3), stride=(1, 1), padding=(1, 1))
      (1): GroupNorm(4, 32, eps=1e-05, affine=True)
      (2): ReLU(inplace=True)
    )
    (conv0_2): Sequential(
      (0): Conv2d(32, 32, kernel_size=(3, 3), stride=(1, 1), padding=(2, 2), dilation=(2, 2))
      (1): GroupNorm(4, 32, eps=1e-05, affine=True)
      (2): ReLU(inplace=True)
    )
    (conv0_3): Sequential(
      (0): Conv2d(32, 32, kernel_size=(3, 3), stride=(1, 1), padding=(1, 1))
      (1): GroupNorm(4, 32, eps=1e-05, affine=True)
      (2): ReLU(inplace=True)
    )
    (conv1_1): Sequential(
      (0): Conv2d(32, 32, kernel_size=(3, 3), stride=(1, 1), padding=(3, 3), dilation=(3, 3))
      (1): GroupNorm(4, 32, eps=1e-05, affine=True)
      (2): ReLU(inplace=True)
    )
    (conv1_2): Sequential(
      (0): Conv2d(32, 32, kernel_size=(3, 3), stride=(1, 1), padding=(1, 1))
      (1): GroupNorm(4, 32, eps=1e-05, affine=True)
      (2): ReLU(inplace=True)
    )
    (conv2_1): Sequential(
      (0): Conv2d(32, 32, kernel_size=(3, 3), stride=(1, 1), padding=(4, 4), dilation=(4, 4))
      (1): GroupNorm(4, 32, eps=1e-05, affine=True)
      (2): ReLU(inplace=True)
    )
    (conv2_2): Sequential(
      (0): Conv2d(32, 32, kernel_size=(3, 3), stride=(1, 1), padding=(1, 1))
      (1): GroupNorm(4, 32, eps=1e-05, affine=True)
      (2): ReLU(inplace=True)
    )
    (conv): Conv2d(96, 32, kernel_size=(3, 3), stride=(1, 1), padding=(1, 1))
  )
  (cost_regularization): UNetConvLSTM(
    (cell_list): ModuleList(
      (0): ConvGnLSTMCell(
        (conv): ConvGn(
          (conv): Conv2d(48, 64, kernel_size=(3, 3), stride=(1, 1), padding=(1, 1))
          (gn): GroupNorm(8, 64, eps=1e-05, affine=True)
        )
      )
      (1): ConvGnLSTMCell(
        (conv): ConvGn(
          (conv): Conv2d(32, 64, kernel_size=(3, 3), stride=(1, 1), padding=(1, 1))
          (gn): GroupNorm(8, 64, eps=1e-05, affine=True)
        )
      )
      (2): ConvGnLSTMCell(
        (conv): ConvGn(
          (conv): Conv2d(32, 64, kernel_size=(3, 3), stride=(1, 1), padding=(1, 1))
          (gn): GroupNorm(8, 64, eps=1e-05, affine=True)
        )
      )
      (3): ConvGnLSTMCell(
        (conv): ConvGn(
          (conv): Conv2d(48, 64, kernel_size=(3, 3), stride=(1, 1), padding=(1, 1))
          (gn): GroupNorm(8, 64, eps=1e-05, affine=True)
        )
      )
      (4): ConvGnLSTMCell(
        (conv): ConvGn(
          (conv): Conv2d(40, 32, kernel_size=(3, 3), stride=(1, 1), padding=(1, 1))
          (gn): GroupNorm(4, 32, eps=1e-05, affine=True)
        )
      )
    )
    (deconv_0): deConvGnReLU(
      (conv): ConvTranspose2d(16, 16, kernel_size=(3, 3), stride=(2, 2), padding=(1, 1), output_padding=(1, 1))
      (gn): GroupNorm(2, 16, eps=1e-05, affine=True)
    )
    (deconv_1): deConvGnReLU(
      (conv): ConvTranspose2d(16, 16, kernel_size=(3, 3), stride=(2, 2), padding=(1, 1), output_padding=(1, 1))
      (gn): GroupNorm(2, 16, eps=1e-05, affine=True)
    )
    (conv_0): Conv2d(8, 1, kernel_size=(3, 3), stride=(1, 1), padding=(1, 1))
  )
  (gatenet): Sequential(
    (0): Sequential(
      (0): Conv2d(32, 4, kernel_size=(3, 3), stride=(1, 1), padding=(1, 1))
      (1): GroupNorm(1, 4, eps=1e-05, affine=True)
      (2): ReLU(inplace=True)
    )
    (1): ResnetBlockGn(
      (stem): Sequential(
        (0): Sequential(
          (0): Conv2d(4, 4, kernel_size=(1, 1), stride=(1, 1))
          (1): GroupNorm(1, 4, eps=1e-05, affine=True)
          (2): ReLU(inplace=True)
        )
        (1): Conv2d(4, 4, kernel_size=(1, 1), stride=(1, 1))
        (2): GroupNorm(1, 4, eps=1e-05, affine=True)
      )
      (relu): ReLU(inplace=True)
    )
    (2): Conv2d(4, 1, kernel_size=(1, 1), stride=(1, 1))
    (3): Sigmoid()
  )
)
**********************

optimizer: Adam 

Selected optimization level O0:  Pure FP32 training.

Defaults for this optimization level are:
enabled                : True
opt_level              : O0
cast_model_type        : torch.float32
patch_torch_functions  : False
keep_batchnorm_fp32    : None
master_weights         : False
loss_scale             : 1.0
…
